AI coach Training/DNN_model.tflite (tflite, 19796 bytes, 5 tensors)

sequential/dense_1/BiasAdd/ReadVariableOp f4 [64]
0	0x3e831ec4	0.2560941
1	0xbe9aeca8	-0.3025868
2	0xbd51e738	-0.051245898
3	0xbc8f6917	-0.017506165
4	0x3e806656	0.25078076
5	0xbc672463	-0.014107796
6	0xbe6c3f7b	-0.23071091
7	0x3e8b265e	0.2717771
8	0xbe4dd9a7	-0.20102559
9	0xbdc06cb4	-0.093957335
10	0xbe85d4eb	-0.26139006
11	0xbc86239c	-0.016374402
12	0xbce10098	-0.027466103
13	0x3e7cff62	0.24706796
14	0x3e82762f	0.25480792
15	0x3e8456ed	0.2584757
16	0x00000000	0.0
17	0x3e45e5a8	0.19325888
18	0x3e812f68	0.2523148
19	0xbe09bd48	-0.13451111
20	0x3e821db2	0.2541328
21	0x3e9d56fc	0.30730426
22	0xbdd62b85	-0.104575194
23	0x3e894095	0.26807085
24	0xbd363458	-0.044483513
25	0xbe07a450	-0.13246274
26	0x3e038f69	0.12847675
27	0x3e7c5520	0.24641848
28	0x3e96c9e6	0.2945091
29	0x3e85761e	0.2606668
30	0xbcc5383d	-0.024074668
31	0xbd0367f6	-0.032081567
32	0x3e85ce9e	0.261342
33	0x3e84d0ae	0.2594046
34	0xbd28f14c	-0.041245744
35	0x3e90a5f0	0.282516
36	0x3e9bf10c	0.30457342
37	0x00000000	0.0
38	0x3e81e0ed	0.25366917
39	0x3e98c3a8	0.29836774
40	0xbd156389	-0.036471877
41	0xbe60ecaa	-0.2196528
42	0xbd1c10ff	-0.038102146
43	0xbcf3f7d1	-0.029781254
44	0x3e7f392f	0.24924158
45	0xbe28eada	-0.16495839
46	0x3e852f79	0.2601278
47	0xbd3ee75c	-0.04660736
48	0xbda93fc6	-0.08264117
49	0xbc18d8b5	-0.009329011
50	0x3e85af4b	0.261103
51	0x3e906e3e	0.28209108
52	0x3e90c8ff	0.28278348
53	0xbe060107	-0.1308633
54	0x3e9e17d3	0.3087755
55	0xbd04b18c	-0.032395884
56	0xbdbefc3e	-0.09325455
57	0xbce03e16	-0.027373355
58	0x3e833cde	0.25632375
59	0xbc9580d7	-0.018249912
60	0x3e8a6616	0.2703101
61	0x3e3abfee	0.18237278
62	0x3e85e220	0.26149082
63	0x3e86062b	0.2617658

sequential/dense/BiasAdd/ReadVariableOp f4 [64]
0	0x3f0819cb	0.53164357
1	0x3edc5482	0.43033224
2	0x3e765cff	0.24058913
3	0x3e9590a7	0.29211923
4	0x3f17afd6	0.5925268
5	0x3ed1aba3	0.4095126
6	0x3e9144ab	0.28372702
7	0x3eaec3b9	0.341337
8	0x3f17ee74	0.59348226
9	0x3e74386b	0.23849647
10	0x3ea00a36	0.3125779
11	0x3e7fc24e	0.24976465
12	0x3e893f17	0.26805946
13	0x3eefc4e3	0.468299
14	0x3f0f997a	0.5609356
15	0x3ed5fb3e	0.41793245
16	0x3e389cd2	0.18028572
17	0x3e8387db	0.25689587
18	0x3f289c7e	0.6586379
19	0xbcc30cd6	-0.023809832
20	0x3ea164b7	0.31522152
21	0x3e6fbfdb	0.23413031
22	0x3ed301d0	0.4121232
23	0x3f26a288	0.65091753
24	0x3ce80e07	0.028327001
25	0x3e8481aa	0.25880176
26	0x3ee2479e	0.44195265
27	0x3e860cf7	0.26181766
28	0x3ed29c56	0.411349
29	0x3e6004c7	0.21876822
30	0x3ea870af	0.3289847
31	0x3ec1030c	0.37697637
32	0x3ee18d67	0.44053194
33	0x3f06af69	0.52611405
34	0x3e70abf3	0.23503093
35	0x3e70c035	0.23510821
36	0x3e851205	0.2599031
37	0x3c1c74e7	0.009549356
38	0x3d95d540	0.07316065
39	0x3eb47100	0.35242462
40	0x3e5bd30e	0.2146723
41	0x3e878b84	0.2647363
42	0x3ef7716e	0.48328727
43	0xbf042dd0	-0.51632404
44	0x3ed0b80f	0.40765426
45	0x3ef90f01	0.4864426
46	0x3e98f1e8	0.2987206
47	0x3e7ea283	0.24866681
48	0x3ea29705	0.31755844
49	0x3e962a7e	0.29329294
50	0x3ed0d7bd	0.40789595
51	0x3e8a12e1	0.26967528
52	0x3e7c2612	0.24623898
53	0x3ea36929	0.31916168
54	0x3ecd5876	0.40106553
55	0x3e29c31d	0.16578336
56	0x3ef59c73	0.47970924
57	0x3e9dc061	0.30810836
58	0x3e83132c	0.25600564
59	0x3d608dff	0.054822918
60	0x3eee7538	0.46573806
61	0x3ec9a996	0.39387196
62	0x3eb5a4f9	0.35477427
63	0x3ed0a01c	0.40747154

sequential/dense/MatMul f4 [64, 3]
0	0xbeb07559	-0.3446453
1	0xbe907c9f	-0.28220078
2	0x3d5cad5e	0.053876273
3	0x3d69e9c4	0.057107702
4	0x3e328e5a	0.17437115
5	0x3dab7038	0.083710134
6	0x3ea67d40	0.32517433
7	0x3e8c2c28	0.2737744
8	0x3e962486	0.2932474
9	0xbd98c677	-0.07459729
10	0x3ea0ffcd	0.3144516
11	0x3e91b564	0.28458703
12	0xbeba3d00	-0.36374664
13	0xbea0f78d	-0.31438866
14	0x3d25290c	0.04032235
15	0x3eb617b8	0.3556497
16	0x3e81f7cf	0.25384375
17	0xbe1788a5	-0.1479822
18	0x3e71e8c8	0.23623955
19	0xbc186689	-0.00930179
20	0x3e789c83	0.24278454
21	0xbf17e39e	-0.5933169
22	0xbefd3e88	-0.4946177
23	0x3e06359c	0.13106388
24	0xbeace113	-0.33765468
25	0xbe9cee83	-0.3065072
26	0x3bdf6e06	0.0068185357
27	0x3e8d2f05	0.27574936
28	0x3ef69c1e	0.48165983
29	0x3d5dfaa2	0.0541941
30	0x3e73393f	0.23752306
31	0xbda6673f	-0.081251614
32	0xbd473f8e	-0.048644595
33	0x3e7b8c4c	0.24565238
34	0x3ebd346f	0.36954066
35	0x3e86031d	0.2617425
36	0x3e51dbc5	0.20493992
37	0x3e9f854f	0.31156394
38	0x3ea16aa8	0.31526685
39	0x3ce63f8e	0.028106477
40	0x3ea03444	0.31289876
41	0xbd99f72a	-0.07517846
42	0x3dc368ff	0.09541511
43	0x3ea37b69	0.31930092
44	0xbebd7828	-0.37005734
45	0xbe3a2cff	-0.18181227
46	0xbe951e68	-0.2912476
47	0xbf341bf4	-0.70355153
48	0x3ed8f3ee	0.42373604
49	0x3e707030	0.23480296
50	0xbd21d41c	-0.039508924
51	0x3f0ab619	0.5418411
52	0x3e9bb545	0.30411735
53	0x3e04315b	0.12909453
54	0xbe46ecc3	-0.19426255
55	0xbe63d4ab	-0.22249095
56	0xbe7e5228	-0.24836028
57	0x3e88afaf	0.26696536
58	0x3e6c76bd	0.2309217
59	0x3e0355f6	0.1282576
60	0x3ea44f17	0.3209159
61	0x3d011707	0.0315161
62	0x3ecb299f	0.39680192
63	0x3ebf727f	0.3739204
64	0x3ececd21	0.40390876
65	0x3e1317ba	0.1436452
66	0x3d82f998	0.063952625
67	0x3e322248	0.1739589
68	0xbd0eeaf1	-0.034892026
69	0xbdccc1f7	-0.09997933
70	0xbe8b874c	-0.2725166
71	0xbe90a5c6	-0.28251475
72	0x3eedc6a6	0.4644062
73	0x3e4c2dba	0.19939318
74	0xb8047800	-3.158301e-05
75	0x3eed6e58	0.46373248
76	0x3ec25c2e	0.37960953
77	0x3e89d3ef	0.26919505
78	0xbdd9c4e2	-0.106332555
79	0x3e6ec1a5	0.23316057
80	0xbe2ea763	-0.1705604
81	0x3ecc2320	0.39870548
82	0x3eba6662	0.36406237
83	0x3e9a4fa3	0.30138883
84	0x3efe3d62	0.49656206
85	0x3db50e1a	0.0884058
86	0x3cfc377e	0.03078818
87	0x3f12ddee	0.5736989
88	0x3eb02ede	0.34410757
89	0x3e523fb4	0.20532113
90	0x3eaec1fe	0.3413238
91	0x3e0b4e13	0.13604002
92	0x3e83debd	0.25755873
93	0x3e1a6347	0.15076934
94	0x3e276a3a	0.16349116
95	0x3d49055a	0.04907737
96	0x3ec359ab	0.3815435
97	0xbddf869d	-0.10914347
98	0xbdcb03ee	-0.09912859
99	0xbeafe4e1	-0.34354308
100	0xbe8e4753	-0.2778879
101	0x3d6569cb	0.056009095
102	0x3d5caf61	0.05387819
103	0x3e8d57d8	0.27606082
104	0x3ebf378b	0.37347063
105	0x3f16411b	0.58693093
106	0x3d375c7a	0.044765927
107	0x3bbd9732	0.005785846
108	0xbf07bc7c	-0.5302198
109	0xbee93828	-0.45550656
110	0x3e59b375	0.21259864
111	0x3ef64d9f	0.48106095
112	0x3f093822	0.53601277
113	0x3eaea897	0.34113
114	0x3f2e4ea7	0.68088764
115	0x3ec83ca9	0.3910878
116	0x3cffc8de	0.03122371
117	0x3ebf08f5	0.3731152
118	0xbde442bf	-0.11145543
119	0xbe27c880	-0.16385078
120	0x3e97639e	0.2956819
121	0x3e6da108	0.2320596
122	0x3ea25364	0.31704247
123	0x3e1caf8c	0.15301341
124	0x3eb9ed4e	0.36313862
125	0x3e7dd797	0.24789272
126	0x3e410ec2	0.18853286
127	0xbda1126c	-0.07864842
128	0xbf0240c9	-0.50880104
129	0xbf39101e	-0.7229022
130	0xbe8e588c	-0.2780193
131	0xbf3100e2	-0.6914197
132	0x3d430c18	0.047618955
133	0xbe8e6df6	-0.2781827
134	0x3e09a2ad	0.13440962
135	0x3e758eb7	0.23980223
136	0x3e00a55d	0.12563081
137	0xbd059e42	-0.03262163
138	0x3f0e1a69	0.5550905
139	0x3d337287	0.043810394
140	0x3c821228	0.015877798
141	0x3ed6f30c	0.41982305
142	0x3eac5203	0.3365632
143	0xbc6091b4	-0.013706613
144	0x3f0e1174	0.5549538
145	0x3e573f06	0.21020135
146	0xbe7f1b90	-0.24912858
147	0x3ee971eb	0.45594725
148	0x3e2a111a	0.16608086
149	0xbca718b5	-0.020397523
150	0x3d169646	0.036764406
151	0x3e29cd55	0.16582234
152	0x3e020ba7	0.12699758
153	0x3eefacfb	0.4681166
154	0x3ed744f9	0.4204481
155	0xbe14eaba	-0.14542666
156	0x3ebe249c	0.37137306
157	0x3eb362d7	0.35036346
158	0x3e955a8c	0.29170644
159	0x3ed8d3c0	0.42349052
160	0x3d374f9f	0.044753667
161	0x3e849027	0.2589123
162	0xba6b82d1	-0.0008984032
163	0x3eef1c7a	0.46701413
164	0x3bb7b4b5	0.0056062588
165	0x3f09af4f	0.53783125
166	0xbd5b5c17	-0.05355462
167	0x3e0846f3	0.13308315
168	0x3f0a610e	0.54054344
169	0xbdbc36cb	-0.091901384
170	0xbe79fbc2	-0.24412444
171	0xbd22c55c	-0.039738998
172	0x3eb1f23e	0.3475513
173	0x3e850a5b	0.25984463
174	0x3f161e9f	0.58640474
175	0x3e6bb31b	0.23017542
176	0xbe4630f9	-0.19354619
177	0x3e994c7e	0.2994117
178	0xbefcec70	-0.49399137
179	0x3e8893e4	0.26675332
180	0x3ee20ec4	0.4415189
181	0xbdf82d84	-0.121180564
182	0xbe010d25	-0.1260267
183	0x3ea7a12c	0.32740152
184	0x3d50cc90	0.050976336
185	0xbef7c0ef	-0.48389384
186	0xbbc1f500	-0.005919099
187	0x3e78bfd6	0.2429193
188	0x3e14e414	0.1454013
189	0x3e1dcb94	0.1540969
190	0xbe93412d	-0.28760663
191	0x3c9c2cd8	0.019064352

sequential/dense_1/MatMul f4 [64, 64]
0	0x3ea564ef	0.3230357
1	0x3e88910f	0.2667317
2	0x3e919d09	0.2844012
3	0x3df81675	0.12113658
4	0x3e81a4dc	0.2532109
5	0x3e074157	0.13208519
6	0x3e7f431f	0.24927948
7	0x3e78dfe4	0.24304157
8	0x3e99e809	0.3005984
9	0x3d6fb351	0.05852062
10	0x3e80f900	0.25189972
11	0x3ea65182	0.3248406
12	0x3e7918a2	0.24325803
13	0x3e4f253d	0.20229049
14	0x3ea9299b	0.33039555
15	0x3e7e8d92	0.24858692
16	0x3e88d5d5	0.2672564
17	0x3eb01a8c	0.34395254
18	0x3ed6355c	0.41837585
19	0x3e87d58f	0.2653012
20	0x3ea36cba	0.3191889
21	0x3ebf05da	0.37309152
22	0x3d88d1d6	0.06680648
23	0x3e583ca0	0.21116877
24	0x3e172d81	0.14763452
25	0x3e4382d3	0.19092874
26	0x3cbffd72	0.023436282
27	0x3e38bc9a	0.18040696
28	0x3e89365c	0.26799285
29	0x3edb7b2c	0.4286741
30	0x3d58fe89	0.05297712
31	0x3d9047eb	0.07044967
32	0x3e837611	0.25676015
33	0x3ed13744	0.40862477
34	0x3eb3b00a	0.35095245
35	0x3ee5bb95	0.44869676
36	0x3e953ff5	0.29150358
37	0x3eb092cf	0.34487006
38	0x3ea642a6	0.32472724
39	0x3e3072ab	0.17231242
40	0x3e586be5	0.21134908
41	0x3ec7f205	0.39051834
42	0x3e58c2ae	0.21168014
43	0xbf642352	-0.89116395
44	0x3de06735	0.10957185
45	0x3eb496af	0.35271212
46	0x3e709ef7	0.2349814
47	0x3e0cc038	0.137452
48	0x3ec1b530	0.37833548
49	0x3e051662	0.1299682
50	0x3da35f10	0.07977116
51	0x3e7354d9	0.23762836
52	0x3e7e304d	0.24823113
53	0x3e8d58a1	0.2760668
54	0x3e5fbad1	0.21848609
55	0x3da028af	0.0782026
56	0x3f0f3a8a	0.559487
57	0x3ec0900b	0.37609896
58	0x3eb2e736	0.34942025
59	0xbe94ad88	-0.29038644
60	0x3ec911fd	0.39271536
61	0x3f18b3a0	0.59649086
62	0x3e53d7d1	0.20687796
63	0x3e196189	0.14978613
64	0x3ee7cb1b	0.45272145
65	0xbf5e27e6	-0.8677963
66	0xbf981ea6	-1.1884353
67	0x3ec340f1	0.38135484
68	0x3ec1a4ce	0.37821048
69	0xbf32d635	-0.69858104
70	0xbe8bf0ae	-0.27332062
71	0x3f1855e0	0.59506035
72	0x3e723ca0	0.23655939
73	0x3f910392	1.1329215
74	0x3d156eec	0.036482736
75	0x3f08cd3f	0.5343818
76	0x3e45e595	0.1932586
77	0xbed30a0d	-0.41218606
78	0xbcd14346	-0.025544774
79	0x3f153842	0.5828897
80	0xbf593041	-0.84839255
81	0x3eda3afe	0.42623132
82	0x3eccd291	0.400044
83	0x3e6bb4ff	0.23018263
84	0xbe69e72d	-0.22842093
85	0x3eb4d688	0.35319924
86	0xbf319e4f	-0.69382185
87	0x3f13b28b	0.5769431
88	0xbd1a96c5	-0.03774144
89	0xbd757202	-0.05992318
90	0x3d4e30a0	0.05033934
91	0xbfed3647	-1.8532189
92	0xbeb92c43	-0.36166582
93	0xbe25e580	-0.16200829
94	0xbdaba4ec	-0.08381066
95	0xbf57dda9	-0.843226
96	0xbf54ef9b	-0.8317811
97	0x3ca03626	0.01955707
98	0x3effc428	0.49954343
99	0xbe641fef	-0.22277807
100	0x3e5144e5	0.20436437
101	0xbc4a2752	-0.012338476
102	0x3e55d716	0.2088283
103	0xbee5a562	-0.4485274
104	0xbf338ac3	-0.7013361
105	0x3f0c7611	0.54867655
106	0x3ebf9e3a	0.37425405
107	0x3f8820e0	1.0635033
108	0xbe69d7d5	-0.2283624
109	0xbf80900b	-1.0043958
110	0xbf316e0b	-0.6930854
111	0xbe5cb642	-0.21553901
112	0xbf844f2d	-1.0336663
113	0xbf49b775	-0.7879556
114	0xbf6a6bf8	-0.91571
115	0xbeb66377	-0.3562276
116	0xbfcd670d	-1.6047074
117	0xbdb6fc74	-0.0893487
118	0x3d6fd5c3	0.05855347
119	0xbf000951	-0.50014216
120	0xbf0632b8	-0.5242114
121	0x3ef89a52	0.48555237
122	0xbf80e98b	-1.0071272
123	0x3f26dcc1	0.65180594
124	0xbf41e06c	-0.75733066
125	0x3df308fd	0.11866949
126	0xbf463fc4	-0.7744105
127	0xbdf11fa4	-0.11773613
128	0x3e548be8	0.20756495
129	0x3e5a10d1	0.21295477
130	0xbe4a617c	-0.1976375
131	0x3e52a06f	0.20569013
132	0x3de0ab06	0.1097012
133	0x3c21442c	0.009842914
134	0x3e28b300	0.16474533
135	0x3e1952bb	0.14972965
136	0xbd518f54	-0.05116208
137	0x3e3152f4	0.173168
138	0x3bdd4c80	0.0067535043
139	0x3e156510	0.14589334
140	0xbd918df9	-0.07107157
141	0x3e68d459	0.22737254
142	0xbd24a4b6	-0.040196143
143	0xbe2e5c19	-0.1702732
144	0xbc592719	-0.0132539505
145	0xbe8c5d2e	-0.2741484
146	0xbd1211b4	-0.035661414
147	0xbe2e992b	-0.17050616
148	0x3e91d4f0	0.2848277
149	0x3de65df4	0.11248389
150	0xbe73cd00	-0.2380867
151	0xbe92a065	-0.28637996
152	0xbec8bdf8	-0.39207435
153	0xbe3bba61	-0.18332817
154	0x3d4cc74b	0.049994748
155	0xbdd82744	-0.10554364
156	0xbe87f187	-0.26551458
157	0x3d5ba268	0.05362168
158	0x3e66659b	0.22499697
159	0x3e578680	0.21047401
160	0xbe8377a2	-0.2567721
161	0x3d34ad17	0.044110384
162	0x3e9d4c75	0.30722395
163	0xbd2e21be	-0.042512648
164	0x3e840740	0.2578678
165	0x3db6e1a4	0.08929756
166	0xbe9f4000	-0.31103516
167	0xbe913798	-0.28362727
168	0xbdd8067b	-0.10548111
169	0x3ea346fb	0.3189009
170	0xbebb910a	-0.36634094
171	0x3f14ca31	0.5812102
172	0xbda8fa40	-0.082508564
173	0xbe71b377	-0.23603617
174	0xbde9f351	-0.11423362
175	0x3e4f28fa	0.20230475
176	0xbe9f0be2	-0.31063753
177	0xbe2094ba	-0.15681735
178	0x3e7c4b44	0.24638087
179	0x3e0e858f	0.13918136
180	0xbe610512	-0.2197459
181	0xbd970bf9	-0.073753305
182	0x3eebfdd7	0.46092102
183	0x3e2844c9	0.1643249
184	0xbeaea1b5	-0.34107748
185	0x3e903e01	0.28172305
186	0xbe5fddfc	-0.21862024
187	0x3f1d816f	0.61525625
188	0xbe59fa55	-0.212869
189	0xbe8f9e21	-0.2805033
190	0x3db87b87	0.09007936
191	0xbe617b48	-0.22019684
192	0x3da5f8f9	0.081041284
193	0x3e3a4e8c	0.18194026
194	0x3e1b67c7	0.15176307
195	0x3cac8fb4	0.021064617
196	0xbe5121a8	-0.20422995
197	0x3e26397e	0.16232869
198	0xbe2e5b91	-0.17027117
199	0x3d6e3efa	0.058165528
200	0x3ddbcb67	0.10732155
201	0x3e1c9f94	0.15295249
202	0x3be343e1	0.006935582
203	0xbd3cad27	-0.04606357
204	0x3c80d17a	0.015724886
205	0xbe5c4435	-0.21510394
206	0x3d948521	0.07251955
207	0xbdf80a03	-0.121112846
208	0xbe5d89f5	-0.21634658
209	0xbdbea420	-0.09308648
210	0xbe268167	-0.162603
211	0xbe4cf244	-0.20014292
212	0xbd1b99cf	-0.03798848
213	0xbdeede15	-0.116634525
214	0xbe424f40	-0.18975544
215	0xbdd0a28e	-0.10187255
216	0xbe42b4f8	-0.19014347
217	0x3db08594	0.08619228
218	0xbd4efda2	-0.05053485
219	0xbc64f3b9	-0.013974124
220	0xbe6195a7	-0.22029744
221	0x3e1eb707	0.15499507
222	0x3bb5d492	0.005549022
223	0xbd8529b9	-0.065020986
224	0x3d755d69	0.059903536
225	0xbb5f241f	-0.003404863
226	0x3deedc39	0.11663098
227	0xbdd0dcde	-0.10198377
228	0x3d9e19a3	0.077197336
229	0xbe3074ad	-0.17232008
230	0xbd75bf78	-0.059997052
231	0xbe1db6e8	-0.15401804
232	0xbd2cb136	-0.04216119
233	0x3e168a91	0.14701296
234	0x3d9ea170	0.077456355
235	0xbe6ceb5f	-0.23136662
236	0xbd2672cb	-0.04063682
237	0xbc061539	-0.008183771
238	0x3daf3c91	0.08556474
239	0x3dc14322	0.09436633
240	0x3d1c812e	0.038209133
241	0xbd5ec082	-0.05438281
242	0xbe5f357d	-0.21797748
243	0xbc2d98ab	-0.010595481
244	0xbe461192	-0.1934264
245	0xbe1c37ed	-0.15255709
246	0xbe18fcc0	-0.14940166
247	0xbe0fcaa4	-0.14042145
248	0x3e2e417f	0.17017172
249	0x3d9beb6b	0.07613262
250	0x3da536f4	0.08067122
251	0xbca8ae1c	-0.020590834
252	0x3e1faa7a	0.15592375
253	0x3dda8e97	0.10671728
254	0x3e41319f	0.18866585
255	0x3d9da7be	0.0769801

sequential/dense_2/MatMul f4 [1, 64]
0	0x3ef3bc58	0.47604632
1	0xbf3469fa	-0.7047421
2	0xbdfe4e0b	-0.12417229
3	0xbd5cf2d5	-0.05394252
4	0x3f0bd734	0.5462525
5	0xbe1de903	-0.15420918
6	0xbf415e0f	-0.7553415
7	0x3ec17a52	0.37788635
8	0xbf483614	-0.78207517
9	0xbf37b7da	-0.7176491
10	0xbface872	-1.3508437
11	0xbe6a032b	-0.22852771
12	0xbd191507	-0.03737357
13	0x3f090fec	0.5353992
14	0x3efc2c94	0.4925276
15	0x3f04b4fe	0.5183867
16	0x3dfe6a2c	0.124225944
17	0x3e22c6ef	0.158962
18	0x3eea9254	0.45814764
19	0xbf88f4b8	-1.0699682
20	0x3ed6d058	0.4195583
21	0x3e929963	0.2863265
22	0xbf276462	-0.65387547
23	0x3efb0b9d	0.49032298
24	0xbde366ad	-0.11103568
25	0xbf449e5c	-0.7680414
26	0xbf8bca1c	-1.0921054
27	0x3f05db7b	0.52288026
28	0x3e93ea8c	0.28889883
29	0x3eba27ff	0.3635864
30	0xbdf104f0	-0.1176852
31	0x3aca6a49	0.0015443052
32	0x3ef99823	0.48748884
33	0x3ec85196	0.39124745
34	0xbb2b1201	-0.002610326
35	0x3edda2aa	0.43288165
36	0x3ea19954	0.31562293
37	0xbe8f6c16	-0.2801215
38	0x3f09ddfc	0.53854346
39	0x3f0b15df	0.5433025
40	0xbe049d65	-0.12950666
41	0xbf03beb0	-0.5146284
42	0xbddd2e50	-0.10799849
43	0xbe74168e	-0.23836729
44	0x3ef7d26f	0.48402736
45	0xbf69c90c	-0.913224
46	0x3f0f5914	0.559953
47	0xbdcb794b	-0.09935244
48	0xbec34938	-0.381418
49	0xbe887a02	-0.26655585
50	0x3eea02da	0.457053
51	0x3f10abeb	0.56512326
52	0x3f075afa	0.52873194
53	0xbeee40e1	-0.46533874
54	0x3e8af6e4	0.27141488
55	0xbd27d9a1	-0.04097903
56	0xbd6fd4d3	-0.058552574
57	0xbe6dcce8	-0.23222697
58	0x3ec3a929	0.38214996
59	0xbe1bfc08	-0.15232861
60	0x3ebca6f7	0.36846134
61	0xbf5ea37b	-0.869682
62	0x3eeafa7d	0.45894232
63	0x3ed6e99c	0.41975105
